results/goleft_100/trained_100.pth (torch, 22775 bytes, 8 tensors)

conv1.weight f4 [4, 11, 3, 3]
00000000: 49cc 9abd 867a d9bc 8870 6dbd 16a1 f93d
00000010: 8abe 843d 7d9e 6cbd 83c1 cbbd 5de6 663d
00000020: 31b8 80bd 024d 1f3c 63db 5e3d 73e9 483d
00000030: f61d 38bc 3c1d d93d 79d0 3b3d d6a6 273e
00000040: 49b2 fbbb 5d9e 943d 27d2 033e 8db1 ef3d
00000050: 9551 37bd de0b e73d 5f05 ba3c 95da cc3d
00000060: 3831 cf3d 624e c93c 49bf 843d 9ebc 963d
00000070: 8a56 143e 9c66 143e d0ab 0a3e daae 2f3c
00000080: e245 2f3c 9a9f 0dbd ed20 c63d f95e 903d
00000090: aa63 00bd 71f6 e23c 1c03 b53d f456 32bd
000000a0: 6d8c 013e 9ea5 ea3d d07a b83d 749f 023d
000000b0: 9d08 5d3d 5b8e ce3d d5b8 21bd ec23 93bd
000000c0: 66fa 66bd eba2 323d 61c7 43bd 45b3 793d
000000d0: ee9e 203e 4bed 373d 10e8 133e 481f 3b3c
000000e0: ff24 96bc fa7e f73d 58ab 193d bf76 36bd
000000f0: 2216 113e e2f4 b03d 04e0 143e fd75 4abd
00000100: e5f5 133d f6f3 acbd 5f71 fd3d edf8 fdbc
00000110: 5524 b83d 9d0a e43d bac4 11bc 8634 63bd
00000120: 0c3a e0bc dcce 4abd 1c08 063d 2f7a a83d
00000130: e9b7 8ebd cf5d e93c 71c3 ca3d f7c5 393d
00000140: 8aeb ad3d c7a6 2ebd 8a1b 99bd a512 c7bd
00000150: aa32 38bd 0cb7 37bc 7243 5c3b 70a1 25bc
00000160: f9d7 943d 3b58 63bc e1ba 9ebd e7dd e3bb
00000170: fd6b a7bc e8eb 55bb d451 c93d b8d8 3c3d
00000180: c1f4 b1bd d114 acba ba0c 833d 10a3 a63d
00000190: 5ae6 6fbd 5577 b2bc 1715 cc3d ee41 8fbd
000001a0: 8008 90bd 5aea 59bd aa01 e63d 5535 b33c
000001b0: 4a7d 98bd 0b20 0eba fbcc 803d 1e3a 99bc
000001c0: 0bfb 513d cd9b 0dbc 5bcb 39bd 4095 043d
000001d0: aa4f 0d3e 2c85 023e 581f d33c 5f9d 693b
000001e0: 70d6 a1bd 2248 123e 01bd 043e 9236 16bd
000001f0: fcab 893b e97b 583b 9dd7 eb3b b7cf 4e3d
00000200: 0eb3 5b3d 0c66 1ebc 8dba 01bd da14 b63d
00000210: 1084 633b 7617 023e 200c c03c f737 acbd
00000220: 9733 8abd 7f92 4abd f976 073d 663c 03ba
00000230: 3353 96bc c860 073e 8328 3dbd 9f7e 493c
00000240: cf1d d43c 7616 d13b c5eb 4ebc e213 5cbc
00000250: 0825 84bd 9a38 5b3d f673 913d da33 99bc
00000260: 339d 3bbd c9bb e23c 71f7 bdbd 2726 82bd
00000270: 25eb 32bc 07b7 5d3d baef 1fbd 2378 4cbd
00000280: 9669 a53c e906 f63d b262 6b3c 13b1 183d
00000290: 2d6e a03d e490 c53d e4c0 283d 1f35 3abc
000002a0: a01d 983d 9e4d c33d d7f8 9b3c 56cb debc
000002b0: 9113 bfbd 13ad c3bd dd53 3dbd fc71 653d
000002c0: 0f9a 18bd 9dcd b83d 51d9 81bd 70f8 79bd
000002d0: 5d2b aa3d 9cc6 93bd b4c0 58bd 6afc e4bc
000002e0: 6f14 bb3d 4b94 953c 504b 8f3d 608b 293d
000002f0: 8257 59bd de3f 4a3d d8bb 4c3d 8da8 79bd
00000300: 8f9b 48bd 32f0 1fbd 714b 583d c4b1 82bd
00000310: c7f0 b93d 9ce2 b2bd 9780 7bbd 1e09 e93d
00000320: 5942 02bd 8468 8b3d 5f08 1d3c 8e99 b93d
00000330: e675 c83d cf7a 6e3d defe 5ebd d47d 18bd
00000340: 7337 8ebd e8ea ad3d c58a 61bd 3d35 313d
00000350: 6503 773c efd6 e13d 09ee 4dbd 421a 103e
00000360: 99d5 463d 19db 8139 304a 193d a6eb 483c
00000370: dc3b 843d f665 003e 8ac9 a83c 7d77 183e
00000380: 1876 033e 7568 af3d 34ba 88bc c080 043e
00000390: e183 873d c5e6 84bd 7968 8fbd eb28 723c
000003a0: d2f6 b63c 066b 543d 8e10 5fbd bee3 703d
000003b0: 815f 3c3d cd66 3fbd b5b8 a9bc fe5b c63d
000003c0: fcab ae3d 8141 55bb 94c2 64bd f34b 8b3d
000003d0: a1b7 bc3b 37b6 703c bc6b 63bd 5028 9e3c
000003e0: 135d 98bd 2cad 90bd 086e 5cbc 4dd7 e93d
000003f0: 6460 883d 9014 3d3c 76e8 99bd 1115 92bd
-0.075584956 -0.026547682 -0.057968646 0.12188928 0.06481655 -0.057768334 -0.09949019 0.056372035
-0.06285132 0.00972295 0.054408442 0.04905076 -0.011237612 0.10601279 0.045853112 0.16372237
-0.0076811654 0.07256768 0.12873136 0.11703787 -0.044755537 0.1128156 0.02270764 0.10002629
0.101168096 0.024573509 0.06481797 0.073601946 0.14486137 0.14492267 0.13542104 0.01072284
0.010697814 -0.034576036 0.09674249 0.070493646 -0.031345047 0.027705403 0.08838484 -0.043539956
0.12651224 0.1145737 0.090077996 0.031890348 0.053963292 0.10085746 -0.03948291 -0.07184586
-0.056391142 0.043612402 -0.047797564 0.06096198 0.15685627 0.044904035 0.14443994 0.011421032
-0.018328188 0.12084766 0.03751692 -0.04454684 0.14168599 0.08640458 0.1453858 -0.04942893
0.036123175 -0.08444969 0.123751394 -0.031002486 0.08991305 0.11134837 -0.008897001 -0.055470012
-0.027371429 -0.049513683 0.032722577 0.0822643 -0.06968672 0.028487114 0.09900559 0.04535481
0.08492191 -0.04263952 -0.07475956 -0.09720353 -0.044970192 -0.011213075 0.0033609536 -0.0101092905
0.07267756 -0.013876016 -0.07750488 -0.006953943 -0.020437235 -0.0032641832 0.098300606 0.046105117
-0.08689261 -0.0013128762 0.06398912 0.081365705 -0.05856929 -0.021785418 0.0996496 -0.06994997
-0.07032871 -0.05320201 0.11230786 0.021876017 -0.07445772 -0.0005421645 0.06289097 -0.01870447
0.051264804 -0.008643103 -0.04535995 0.0323689 0.1379992 0.12746114 0.025771782 0.003564678
-0.07902229 0.14285329 0.12962724 -0.036673136 0.0042014103 0.003303284 0.007197334 0.05049106
0.053637557 -0.009667885 -0.03167205 0.08890696 0.0034716167 0.12704262 0.023443282 -0.08409112
-0.06748121 -0.049456116 0.033072446 -0.00050062535 -0.01835022 0.13220513 -0.046181213 0.012298255
0.02589312 0.0063808514 -0.012629454 -0.013432475 -0.06452376 0.053520776 0.07102196 -0.018701483
-0.045804214 0.027677434 -0.09275711 -0.06354933 -0.010920321 0.054129627 -0.03904698 -0.04991926
0.020191949 0.12013037 0.0143667925 0.037278246 0.07833514 0.09646776 0.04119958 -0.011365204
0.074275255 0.09536289 0.019039555 -0.027196568 -0.09329904 -0.09554496 -0.046222556 0.056016907
-0.037256297 0.090235926 -0.06340278 -0.061027944 0.08309052 -0.07215616 -0.05291815 -0.027952392
0.09134757 0.018259188 0.069967866 0.041392684 -0.05306197 0.049377315 0.04998383 -0.06095176
-0.048976477 -0.039047427 0.05280632 -0.06381562 0.09079128 -0.087346286 -0.06140193 0.11378692
-0.031801555 0.06807044 0.009584515 0.09062491 0.09788112 0.05822259 -0.05444228 -0.037229374
-0.0694417 0.084920704 -0.05506398 0.043263663 0.015076493 0.110273235 -0.050275836 0.14072517
0.048543546 0.00024768038 0.037424266 0.012263214 0.0645673 0.12538895 0.020603914 0.14889331
0.12838018 0.085648455 -0.016690351 0.12939739 0.06616951 -0.06489328 -0.070023485 0.014780263
0.02233449 0.051859878 -0.054459147 0.058810942 0.045989517 -0.046728898 -0.020717958 0.09685515
0.08528897 -0.0032540264 -0.055849627 0.068015955 0.005759195 0.014691881 -0.055522665 0.019306332
-0.074396275 -0.0706428 -0.013453968 0.114180185 0.0665901 0.011540547 -0.075150415 -0.07132924

conv1.bias f4 [4]
00000000: 5c5d 903c 4e5e 113e 93b4 1dbd 45ee 183e
0.017622642 0.1419613 -0.038502287 0.14934643

conv2.weight f4 [4, 4, 3, 3]
00000000: 4da9 623e 6486 5dbd d27b 313e 009a bcbd
00000010: c34a 443e 936e 083d dbf9 0dbb 1dc1 693e
00000020: adc1 5c3e 61f6 4a3e cded 283e 2db3 dcbd
00000030: 9e71 683e b5dc d9bd 5753 b8bb f0c4 813d
00000040: 0acd 063e 4a0d 253e 6efd f63d 8f4f ab3b
00000050: 09cf acbd abd6 d9bd f5ba 043c 3b5e 2b3d
00000060: f8c5 593e ce9c d6bd 3eac 3fbd 7fd8 ae3d
00000070: ed1e 6c3e d942 ba3d a00b bcbd cf56 6fbc
00000080: a89a f2bc 2563 eb3d cbb5 22bd 993a 8fbd
00000090: 4fff 513e cfdf 053e d577 05bc f38e 923d
000000a0: 9a79 b3bd 846f cb3d f889 94bd 559a 133e
000000b0: 88dc 49bc da82 9b3d 59d7 533e 4108 2d3e
000000c0: f214 3e3e 7c2b 113e 6e36 d23c 33b9 70bb
000000d0: a92b 4f3d 43ee 49bd 05ca 3ebc 0de6 dd3d
000000e0: b5dc ec3d 7fca bc3d 85d1 593d 204d 0bbd
000000f0: 977f 45bd 409c 563e 9ef6 3e3e dd7e 293e
00000100: 6e42 2b3e d15f 893d a235 7fbc 49e4 423d
00000110: e94b 41bd ccc0 fa3d 93ed 393d 1e1f 493d
00000120: 4783 543e dc92 763d 9832 27bc 5557 2f3d
00000130: 54bd a2bd 2097 673e 4fdc ba3c 0a41 04bd
00000140: 506f b33d da9b 4f3e a684 86bd bc2e 053e
00000150: e132 323d 8efd 103d 6528 543e 06ef a8bd
00000160: 801b 9c3c cc23 813d 806e 8abd e55b d83d
00000170: 9e2b b83d 14ce d23c d374 a3bd 0ca8 bfbd
00000180: 3568 85bd 21f1 1abd 3de4 99bc d9c6 533e
00000190: 22cf 1a3e 4785 29bd 7b12 3e3e b78f abbc
000001a0: 187b 293e ddce 49bc 0768 493e 404c f23d
000001b0: 4858 9d3d a1bf 473e 9a84 753e 8ae4 08bd
000001c0: 6d1e d53d 939c a3bc 0a1b 5cbd ac25 913d
000001d0: 1e44 9a3d f4d4 3a3e edec 7bbd 0e89 a2bd
000001e0: 3aeb d13c b637 483d ab4e 903c 5af6 b4bd
000001f0: d829 d7bc 3a82 7bbd 4c6d 043e 1e30 d03d
00000200: f5da 9c3d 2c03 303e a363 e8bc 8aff a4bb
00000210: 9b08 123e 3067 1fbd 5263 1b3e 8452 563e
00000220: 0e07 ab3d 3ec3 383e 3e7a 2bbd b458 563d
00000230: 13a4 da3d 7ded f03d 01b9 783e cb29 763e
0.22134896 -0.054083243 0.1733239 -0.09209061 0.19169144 0.033308577 -0.0021663818 0.22827573
0.21558256 0.19820549 0.16496964 -0.107763626 0.22699592 -0.106378 -0.0056251693 0.06336391
0.13164154 0.1611835 0.120600566 0.00522799 -0.08437926 -0.10636648 0.008101215 0.041837912
0.21266925 -0.10479127 -0.046795122 0.08537387 0.23058672 0.090947814 -0.09181905 -0.014608099
-0.029614761 0.1149352 -0.039724153 -0.069935985 0.20507549 0.13073657 -0.008146246 0.07156172
-0.08763428 0.09933379 -0.07252878 0.14414342 -0.012320645 0.07593317 0.20687617 0.1689768
0.18562678 0.14176744 0.02566072 -0.003673148 0.050578747 -0.04929949 -0.011644845 0.10834894
0.11565534 0.092183106 0.05317833 -0.0340091 -0.048217382 0.20958042 0.18648764 0.16552301
0.1672456 0.06707729 -0.015576752 0.04758099 -0.047191534 0.12243804 0.045392584 0.04910194
0.20753203 0.06019865 -0.010204934 0.042807896 -0.07946268 0.22616243 0.02281013 -0.03228859
0.087614655 0.20274296 -0.065682694 0.13006109 0.043505553 0.03539806 0.20718534 -0.08248715
0.019056082 0.06305656 -0.067593575 0.105644025 0.08992694 0.025733031 -0.07981267 -0.09358224
-0.065140165 -0.037827615 -0.01878559 0.20681323 0.15118077 -0.04138687 0.18561737 -0.020942552
0.16550863 -0.012317386 0.1966859 0.1183095 0.07682854 0.19506694 0.23976365 -0.033421077
0.10406194 -0.019972121 -0.053736724 0.070872635 0.075325236 0.18245298 -0.061505247 -0.07936297
0.02562486 0.048881255 0.017615637 -0.0883605 -0.02626507 -0.06140349 0.12932318 0.101654276
0.0765895 0.1718871 -0.028367823 -0.0050353454 0.14261095 -0.038916767 0.15174606 0.20929915
0.08350955 0.18043229 -0.041864626 0.052330688 0.10675826 0.11764047 0.24289323 0.2403938

conv2.bias f4 [4]
00000000: 8a93 6e3d 2c74 31bd db2b e0bb 23bb 413e
0.058246173 -0.04332368 -0.0068411655 0.18919043

linear1.weight f4 [64, 64]
00000000: b640 0f3c 12f5 38bd f221 d6bd bf05 57be
00000010: 3cd8 1f3e 376f 5dbe c811 563e ae9b 3fb9
00000020: f23a 743d 95c4 90bc 4a82 0cbe f4b0 3dbe
00000030: 050c 5a3d 5869 a6bd f952 bfbd 7e18 dcbd
00000040: 1785 19be ce13 343e 0e35 06be 0fb0 bf3d
00000050: cd2e 0bbd a747 a4bd 0aa8 0abe d822 3e3e
00000060: 4f50 ab3d 0401 2abe bca7 f3bd 5b24 c93b
00000070: f574 313e 33e7 1bbe a0c6 a73d 8668 303e
00000080: 97cf 91bd b6c8 013d a4b1 8b3d b0eb 00bc
00000090: a593 513e 943d 323e 59e8 ba3d d4ab 823d
000000a0: ef29 313e fd5c 58be f39d 32bd 68a5 cc3d
000000b0: 39bf 4ebe 3701 123e 12c4 d1bd 7f76 39be
000000c0: d297 bfbd 0886 c03d fc72 003c d5de 57be
000000d0: b83c 523e c45e 3b3d 9f85 983c 926f 3fbe
000000e0: a2d5 37bd 7b2b d0bd 5722 20bd 838a e2bd
000000f0: fa50 a9bd 2a82 a4bc 19a4 11be 2a2c 323e
00000100: cb54 cabd 4114 1b3e 0272 62bd aae1 5f3e
00000110: 8057 823b 0c09 2b3c f401 a03d d2e0 fabd
00000120: 8a8a 2c3d 362b 54bd 80fa cb3d f0b3 063c
00000130: 6dc1 53bd ca56 8c3c 4ba5 50bc 956e 0dbe
00000140: debf 0dbe 8b05 d13d 28b0 cdbd 973f 79bd
00000150: d616 443e 3d3b 2d3e 6dc8 26be 9ac3 203e
00000160: f79f 00be 9b77 97bd dd6a 683e c9a1 c0bd
00000170: e5ba 5c3e b2eb fbbc c7cf db3d 6190 30be
00000180: 8782 623e 99ed dbbd 386c 1d3e a8f3 f73c
00000190: ec6d 283e 8806 3ebd 2488 0ebe b6cb 2d3e
000001a0: 9e9f 67bd 6a61 4e3e a7fb 24be 43e5 2c3e
000001b0: 7745 0e3e e6a2 d73d 382d a53d 6a78 f33d
000001c0: 283b 823e 1149 383e 105d c73c 9e2f 413e
000001d0: 74d2 dc3d 324a 5e3e 7973 c63c c68a 613e
000001e0: 0159 6a3e 0ccb 66bc a238 153e ce00 b4bd
000001f0: 030c 893e f97f 2d3e 1928 263e 02f6 a73d
00000200: 2095 1fbd d4b8 90bd 1d0f da3c b53d 103c
00000210: e567 3dbe 7d95 1f3e d31a 4ebd e182 3bbe
00000220: 2b1c b8bd 3a73 8ebd 9825 de3d 50ac df3c
00000230: 1f29 4e3e c8b2 023e d979 5b3e 6386 1b3e
00000240: 56af 513e 1929 0d3e 3b30 683d 9b9b d5bd
00000250: 72a5 bdbd c5fe 1ebe 25cf 09be d5c9 ebbd
00000260: cca2 753c 4a54 12be be6e 5b3c 9c93 a33d
00000270: 6ec2 353e 8b5f 45be 6c10 b8bd 9104 1f3e
00000280: c371 283d 8f7b d03c 4472 cdbc a708 92bd
00000290: 433a 333c 7370 15be 66d8 1a3d 76c6 43be
000002a0: 1791 473d 98bb 4abd 1dfd d63c 4477 46be
000002b0: c563 5abe fe34 0d3d 8a5c 453e b0ae 013e
000002c0: 23d4 f7bd a105 c4bd d45d 2dbe fc19 f83d
000002d0: aeb1 433e 9223 13be dbc8 51bd 4e90 7dba
000002e0: bcda 0bbe b158 dabd 3f58 b33d 3278 5abe
000002f0: 1c0d 363d f458 863c 39f1 43be 6d9e 533e
00000300: d0a8 5c3e 4252 28bd 6051 45be 0970 3ebd
00000310: c97a 843d be6f 5dbe 1296 be3d 663b 95bd
00000320: e783 373d 43c9 dbbd 0fc4 003e e340 2e3d
00000330: bd88 6c3d e686 113c 54d2 e8bd d885 2d3e
00000340: 1684 4bbd 9e01 e0bd 3277 57be c803 afbd
00000350: 4bb6 56be 1187 2cbe 5c4d e1bd d7d6 01be
00000360: 209a 49be ec50 fcbd 3411 3e3b e5b9 24be
00000370: 7194 d7bd 651a 153c cc69 e8bd 1505 1a3e
00000380: 47f8 adbc 5f1e 1fbb 9f74 20be 742e 4f3d
00000390: a805 56be c18b 4f3e 3955 7ebd 6c91 9b3d
000003a0: 7c97 01bc 70b7 17be eaa6 9e3c f7b8 34be
000003b0: 6635 8abd 6538 b4bd 83f2 3d3e 8534 ecbd
000003c0: 2b73 11be 7a5e fbbd 7324 18be e235 573e
000003d0: ed48 143c 89b3 933b bf11 b9bd 8198 10be
000003e0: 7b76 2cbe a47a 97bd 477f 20bd 9c76 4fbe
000003f0: 318a 83bd 50ce 07be a202 fdbd ae7f 3cbe
0.008743456 -0.045155592 -0.10455693 -0.20998286 0.1560983 -0.21624456 0.2090522 -0.00018273175
0.059626527 -0.017671863 -0.13721576 -0.18524534 0.05323412 -0.081255615 -0.09341998 -0.10746859
-0.14992176 0.1758568 -0.13106176 0.093597524 -0.03398018 -0.08021479 -0.13540664 0.1856798
0.08364927 -0.1660195 -0.11897227 0.006138367 0.17329772 -0.15224914 0.081921816 0.17227373
-0.07119673 0.031685553 0.06820992 -0.007868692 0.20466478 0.17406303 0.09126348 0.0638043
0.17301153 -0.21129222 -0.043607663 0.09992486 -0.20190133 0.14258276 -0.102424756 -0.18111609
-0.09355129 0.094005644 0.007839914 -0.21081097 0.20530975 0.045744672 0.018618403 -0.18694904
-0.04488147 -0.10164543 -0.03909525 -0.11061575 -0.08267398 -0.020081598 -0.14222755 0.1739966
-0.09879454 0.15144445 -0.055284508 0.21863428 0.003977716 0.010439169 0.078128725 -0.12249912
0.04212431 -0.05179902 0.099598885 0.008221611 -0.051698137 0.017131228 -0.012734721 -0.13811715
-0.13842723 0.10206135 -0.10043365 -0.06085166 0.19149336 0.16917129 -0.16287394 0.15699616
-0.12561022 -0.0739586 0.22697015 -0.09405858 0.2155567 -0.030752037 0.1073299 -0.17242576
0.22120105 -0.107386775 0.15373313 0.030267552 0.16448182 -0.046392947 -0.13919121 0.16972241
-0.056548707 0.20154348 -0.16111623 0.16884331 0.13893686 0.10529117 0.080652654 0.118882015
0.25435758 0.17996623 0.024336368 0.18865821 0.10782328 0.21707991 0.024224984 0.22025594
0.22885515 -0.014086496 0.14572385 -0.08789216 0.26766977 0.16943349 0.16226234 0.08201219
-0.038960576 -0.07066503 0.026618535 0.008803775 -0.18496664 0.15584369 -0.05031855 -0.18311645
-0.089897476 -0.069555715 0.10847014 0.027303845 0.20132874 0.12763512 0.214332 0.15187983
0.20477042 0.13785209 0.05668662 -0.1043007 -0.09260072 -0.15526874 -0.13457926 -0.11513106
0.014992427 -0.14289966 0.013393102 0.07987139 0.1774995 -0.19274728 -0.08987507 0.15529086
0.041124117 0.025449542 -0.0250789 -0.071305566 0.010939184 -0.14593677 0.03780403 -0.19118676
0.048722353 -0.04949531 0.02624374 -0.19381434 -0.21327122 0.034474365 0.19273582 0.12664294
-0.12101009 -0.09571386 -0.16930324 0.12114331 0.19110748 -0.14369038 -0.05121694 -0.0009672687
-0.1365766 -0.10661448 0.08757066 -0.21334913 0.044446096 0.016399838 -0.19134988 0.20665903
0.21548772 -0.041094072 -0.19269323 -0.046493564 0.06468732 -0.21624658 0.093059674 -0.0728672
0.044803526 -0.10731747 0.1257479 0.04254235 0.05774759 0.00888226 -0.11368242 0.16945589
-0.049686514 -0.109378085 -0.21041563 -0.08545643 -0.20967977 -0.16848399 -0.11001083 -0.12679611
-0.196877 -0.12320122 0.0029001953 -0.16086538 -0.1052636 0.009100531 -0.11348304 0.15041001
-0.021236552 -0.0024279577 -0.15669487 0.05058141 -0.20900595 0.20268156 -0.062092993 0.075960964
-0.007909652 -0.1481607 0.0193667 -0.17648683 -0.06748466 -0.08799819 0.18549542 -0.11533455
-0.1420409 -0.12273879 -0.14857654 0.21016648 0.00905059 0.0045074862 -0.09036588 -0.14120676
-0.16842072 -0.07396439 -0.03918388 -0.2026009 -0.06422842 -0.13262296 -0.12354018 -0.18408081

linear1.bias f4 [64]
00000000: 0ad7 233c 0c90 7d3d 3955 3f3c 0ad7 233c
00000010: 600c 253d 643e 673d 0081 ec3b dfcf 283d
00000020: c7a4 543d 4077 033c 5884 aa3d ad61 063d
00000030: f47d a63c bbde 883d 0ad7 233c ff2f dcbb
00000040: bca5 013d 0ad7 233c 0ab5 023c fd4a 283d
00000050: e8b4 323c 3833 0dbc 19c9 843d 91af a4bb
00000060: 10b6 ff3b 0ad7 233c 4cdc 383c e305 053c
00000070: 0fe0 693c f3bd 823c e33e 7f3d 4a6e 6f3d
00000080: 5164 b73d 6d2a 8ebb bbbc 0f3c acaa 2f3d
00000090: 46d7 a33d 6834 ad3d 62bf 533c 65de debb
000000a0: c32d be3c a35a 413c b50d 0e3c 7f02 5a3d
000000b0: 649e 743c 486b 3b3b db8e 1b3c 22a9 65bc
000000c0: 0c6f 7bbc a85c bd3d 7895 b93d d248 9abc
000000d0: 9fcb ac3d fdd9 59bb ae95 973d 1fc2 cabb
000000e0: e883 ed3c 91f5 873b 0ad7 233c af40 cb3a
000000f0: 2384 4d3a b371 bd3d 07cf d43c 4a43 f53b
0.01 0.061904952 0.0116780335 0.01 0.040295005 0.056455985 0.0072175264 0.041213866
0.051914956 0.008024037 0.08326024 0.032807995 0.020323731 0.066831075 0.01 -0.006719589
0.031652197 0.01 0.007977733 0.04108714 0.010907389 -0.0086181685 0.06483669 -0.005025812
0.007803686 0.01 0.011282992 0.008119079 0.014274611 0.015959715 0.062315833 0.05845479
0.08954681 -0.0043385536 0.008773024 0.042887375 0.080000445 0.08457261 0.012924047 -0.006801414
0.02321518 0.011801395 0.00867026 0.053225037 0.014930341 0.002859788 0.009494509 -0.014017375
-0.0153463 0.092461884 0.09061712 -0.018833552 0.08437275 -0.0033241503 0.07401596 -0.006187692
0.028993562 0.004149147 0.01 0.0015506948 0.00078398193 0.09250202 0.025977625 0.007484828

out.weight f4 [4, 64]
00000000: d4fe 08be 3766 533e a65d fa3d 9ef4 133e
00000010: f944 f8bd 1664 9fbd 7e39 953e 908e 1a3e
00000020: 34a1 99be cf09 8a3e d56e 96be f900 49be
00000030: bb8a 053e 0de8 39bc 1950 1c3d 51e3 7dbd
00000040: d61f dcbd a421 7a3e 50f9 22bd 054f b2be
00000050: 3a8c 8ebc 19d7 cdbc 9231 32bd 7665 fe3d
00000060: 5227 d9bd ae3f 4a3e 1252 6abe ff8d 753e
00000070: 5f7f 673e b9c5 7ebe c137 53be d5a0 17be
00000080: 4d4d 9bbe fa58 2d3e b3a5 0fbe 5224 553e
00000090: c894 ec3c 23f9 8ebc 4392 63be 3eca 863e
000000a0: c8da 95bd a242 6a3e 4fc1 48be 793d a4bd
000000b0: d92e 22be a578 b83d b2e8 75be 3d39 0f3e
000000c0: c4e1 75be 82e2 20be cb4f 62be 1849 843e
000000d0: dd8f a9be bd28 273e dc35 a53c 8a42 82bc
000000e0: 2af4 a9be 41d6 943e c5d4 ffbd 2f1a 833e
000000f0: c61b 44be eb93 afbe da31 263e 23df 18bd
00000100: b6af 84be 6cbb e33c 8928 653d c17d 1b3d
00000110: ac88 da3d de2e a5be 6cea 493e f81b 2cbe
00000120: 2cd4 4a3e 0313 9dbd 8b54 a4be 8cc9 433e
00000130: 4367 14be 4d69 103e 17a7 86be d35d 773e
00000140: a7d1 1f3d 4283 2d3c 2842 96be 7cb9 94be
00000150: 890b 293e 5298 ec3d 980e b93d be0c 093e
00000160: 949e 00be 5aa4 efbd 07ee 493e cfe9 a83d
00000170: bc23 803d b5fc 593e 0077 a0be 336f 85bc
00000180: 3f34 85bd bc47 77be 188a 0fbc 777f 9abe
00000190: a79c 9ebe 2f5c 54be 2aed 3bbe b3f9 c33d
000001a0: 348e f1bc e326 8f3d b158 7fbd 99b3 a5be
000001b0: ca9b 933d c794 143c e95a 7dbe 45bc d23d
000001c0: 2284 033e 08f4 a2be 28a1 3bbe 63a4 c7bc
000001d0: b239 8bbe 85f2 73be eafb cb3d 8329 3a3e
000001e0: 4569 cb3d d295 a23d 1273 5c3e 5e64 ef3d
000001f0: c20c 543e 1211 f2bd 0e94 2abe 5942 71be
00000200: 1049 113c 2435 87be 0487 9cbc 15e7 843c
00000210: 218c debd f831 983d 50e2 873e dc33 9f3d
00000220: 4ae4 00be c1a5 77be ed6a 44bd 2fc4 42be
00000230: b8ef 713e f301 73be 9b12 32bd 5d76 b73d
00000240: 9dc7 abbc b459 c4bd 28cb 573e f0f8 1dbd
00000250: 256c 64be 571f 993d bf6a 4dbe 1430 1e3e
00000260: e522 5bbe ba09 8fbd 90ba 343d da37 87be
00000270: 6baf 22be 8be1 633e cd12 5bbe 5dce d33a
00000280: e58d b0be 24ab 043e 6333 75bd 0937 dc3d
00000290: 5fc9 8bbd 67e6 88bd afeb 8c3c abc1 37bd
000002a0: 636e 593e 9671 b7be 6d07 38be a868 0fbe
000002b0: d58a 3b3e 487e 8f3e e57e 3ebe 8d65 a1bd
000002c0: fd1c 4b3e b25c 6cbe aa18 a8bd 3fdd 003e
000002d0: 931a 8abe 2b1a 613e 6f4b 9fbe fe56 6cbe
000002e0: c458 913c fc43 eb3d dd84 8abe d028 443e
000002f0: 6718 943e de64 99be 6e7b c23d d795 22be
00000300: 6f0a 48bc d38b a9be 497f 3f3e a432 90be
00000310: 87f7 a4bd c4f6 95bd 7c4d 66be 47d4 a5be
00000320: 8763 0bbe 7e93 94be c744 6ebd 80d1 d9bc
00000330: 027d 1e3e 6ba0 a5be 218a 0b3e 91be 35be
00000340: 05a1 acbd ccfa b8bc 19b4 723d f779 653e
00000350: 8062 723e f1fc 513e 5ddd 7ebe 9635 223e
00000360: 4d5a 183e 3ead 863e a44d 193e ab81 793d
00000370: 6bce d1bd 54db da3d cc80 403e 97c6 11be
00000380: f995 0bbe fa61 453d 8c85 2b3e 853c a9be
00000390: f16a 68be c65b 00be d3fe 2d3e 8c4f 2cbc
000003a0: 40ae acbe 2b27 183d 3d11 f3bd 4ecb 123e
000003b0: 72eb 84bd 6a3a 383e 6fc8 7dbe f84d 6b3e
000003c0: d1de c03d d2a2 6bbe 83a1 ebbd 763f d03d
000003d0: 3d75 3e3d 2a90 53bc 56f8 a2be 0101 923d
000003e0: 6a8d 70bd ad34 873e efcd 8ebe 438e 9fbe
000003f0: be5c 883e ebf5 6abe 7403 8cbe 3a2b 7a3e
-0.13378459 0.2064446 0.12224893 0.14448783 -0.121225305 -0.07782762 0.29145426 0.15093446
-0.300058 0.26960608 -0.29381433 -0.19629277 0.13041203 -0.011346829 0.038162325 -0.061984364
-0.1074826 0.24426895 -0.039788544 -0.34825912 -0.01740085 -0.02512698 -0.043504305 0.12421696
-0.10603203 0.19750854 -0.2288287 0.23979948 0.22607182 -0.24880113 -0.20626737 -0.14807446
-0.30332413 0.16928473 -0.14028053 0.20814636 0.028879538 -0.017452782 -0.22223763 0.26326174
-0.0731712 0.22876981 -0.19604991 -0.080195375 -0.15838183 0.09007386 -0.24014547 0.13986678
-0.24011904 -0.15711406 -0.22100751 0.25837016 -0.3311757 0.16324134 0.020167284 -0.015900869
-0.33194095 0.29069713 -0.124917544 0.25605914 -0.1915122 -0.3429254 0.16229954 -0.037322175
-0.25915307 0.02779933 0.05594686 0.037961725 0.10670599 -0.3226232 0.19718331 -0.16807544
0.198075 -0.07669642 -0.3209575 0.19119853 -0.14492516 0.14102669 -0.26299354 0.24156885
0.0390183 0.010590376 -0.29347348 -0.29047763 0.16508307 0.1155249 0.09035987 0.13383767
-0.12560493 -0.117012694 0.19719706 0.082477205 0.06256816 0.21287806 -0.3134079 -0.016288375
-0.06504106 -0.24148458 -0.008760951 -0.30175373 -0.3097889 -0.2073829 -0.1835219 0.09569111
-0.029486753 0.06989839 -0.062340442 -0.32363585 0.07207449 0.009068674 -0.2474171 0.10289816
0.12843373 -0.31826806 -0.18323195 -0.024370378 -0.27192456 -0.23822983 0.09960158 0.18179898
0.09932188 0.07938732 0.21528271 0.116890654 0.20707992 -0.11819662 -0.16658041 -0.23560466
0.008867517 -0.2640773 -0.01910735 0.01622347 -0.10866571 0.07431406 0.2653985 0.07773563
-0.12587085 -0.24184324 -0.047953535 -0.1902015 0.23626602 -0.23731212 -0.043474775 0.08958123
-0.020969206 -0.09587422 0.21073592 -0.038567483 -0.22306879 0.07476681 -0.20060252 0.15448028
-0.2140003 -0.06984277 0.044123232 -0.264098 -0.15887229 0.22254007 -0.2139389 0.0016159524
-0.34483257 0.1295591 -0.05986346 0.107526846 -0.06825518 -0.06684571 0.017202226 -0.04486243
0.21233515 -0.35828847 -0.17971583 -0.14004767 0.18314679 0.28026032 -0.18603094 -0.078806974
0.19835277 -0.23082235 -0.08207829 0.12584399 -0.269734 0.21982639 -0.3111224 -0.2308006
0.017742522 0.11487576 -0.27054492 0.19156194 0.28924868 -0.29959768 0.094961986 -0.15877472
-0.012209519 -0.3311449 0.18700899 -0.28163636 -0.080550246 -0.073224574 -0.22490495 -0.32388517
-0.13612185 -0.29018778 -0.05817106 -0.026589155 0.15477374 -0.32348952 0.13626911 -0.17748477
-0.084291495 -0.022580527 0.059253786 0.22409807 0.23670387 0.20506646 -0.24889131 0.15840754
0.14878197 0.26304048 0.14971024 0.060914677 -0.10244449 0.10686365 0.18799132 -0.14235912
-0.13631429 0.04818914 0.16750163 -0.33053985 -0.22697045 -0.12535009 0.16991739 -0.010517012
-0.33726692 0.03714673 -0.11868522 0.14335367 -0.0649022 0.17991033 -0.2478349 0.22978961
0.09417499 -0.2301133 -0.11505415 0.10168354 0.046498526 -0.012912789 -0.3183009 0.07129098
-0.058728613 0.26407376 -0.2789149 -0.31163225 0.26633257 -0.22945373 -0.27346385 0.24430552

out.bias f4 [4]
00000000: fc7f 3cbd 1366 48bd 9b30 5fbd 763d 56bd
-0.046020493 -0.04892547 -0.054489713 -0.052304707
