results/feedforward_300/trained_300.pth (torch, 23315 bytes, 4 tensors)

layer1.weight f4 [256, 16]
0.15823434 0.2786534 0.13436994 0.18186788 0.041006364 0.04016058 0.07661876 0.2292237
0.17813836 0.116284035 0.114647 0.26539004 0.2730285 0.23228107 0.2550297 0.04916227
0.025533348 0.19176641 0.18711072 0.14644758 0.2588227 0.2000642 0.024377493 0.106645525
0.14102606 0.16774954 0.28540567 0.099121794 0.08065197 0.10474309 0.03947434 0.06901723
0.24865004 0.10222152 0.074676216 0.28551865 0.07967389 0.11518621 0.3070388 0.13820884
0.2402574 0.1652654 0.341618 0.06078527 0.19506396 0.28369814 0.2911362 0.23733792
0.21417917 0.22574514 0.1686376 0.19842547 0.27353677 0.151215 0.2292684 0.09065045
0.047545556 0.18591774 0.08860989 0.006980434 0.02903771 0.112947404 0.067470655 0.08673769
0.18982202 0.2134551 0.02561715 -0.013862199 0.09349032 0.0011475667 0.16111477 0.16039689
-0.018166853 0.018786581 0.19857271 0.21660405 0.09197727 0.10518385 -0.060701013 -0.05561761
0.04630513 0.043489758 -0.094469115 -0.0020488917 1.15582225e-05 -0.14882001 -0.077138625 -0.16037658
-0.14247462 0.10245385 -0.08405258 0.07275656 -0.042476937 0.066364884 0.15585485 -0.12873317
0.14817412 0.09489924 0.20772706 0.10427166 0.071904525 0.17544332 0.32405752 0.052949883
0.1656179 0.0865663 0.10480806 0.045223173 0.055002015 0.10859527 0.030648252 0.17551109
0.06844267 0.14615414 0.17021033 0.1394244 0.02641344 0.1436918 0.19239034 -0.005429986
0.08538564 0.09552594 0.13417862 0.19946016 0.14664163 0.19372343 0.19969723 0.13934632
0.12143052 0.16002974 0.12311737 0.13267799 0.25054583 0.1633428 0.14626046 0.2444111
0.20462845 0.3265843 0.17624937 0.23868755 0.08208087 0.05691796 0.050894886 0.18994057
0.0859788 0.2201344 0.1484688 0.12066079 0.07865581 0.043169666 0.21655813 0.17928253
-0.041410375 0.1361947 -0.027654307 0.07383847 0.04322487 0.059729602 0.16189463 -0.03822
-0.01966911 -0.08110618 0.02806656 0.033813972 -0.113683864 -0.13531572 0.12633854 0.010309993
-0.14124705 0.10304707 -0.06260967 -0.11459806 0.109061256 -0.024424072 -0.015446014 -0.005688353
0.024308493 0.00810425 0.13127576 0.044744268 0.05262931 0.051692687 0.25856736 0.021158548
0.026740476 0.29929286 0.21758357 0.07544377 0.09494705 0.15368393 0.25958416 0.24485141
-0.12642437 -0.07024507 0.06630104 -0.118498944 -0.0967845 -0.036894016 0.10988755 -0.09473509
0.09119257 -0.03200712 -0.013519784 -0.058538504 0.15162356 -0.05388259 0.10601888 -0.09194409
0.1819817 0.1451456 0.12657249 -0.00024575135 0.11815004 0.12953928 -0.065253474 0.17876631
0.024371976 0.01988254 0.1784886 0.0189814 0.17712545 -0.02205676 0.082903266 0.14857578
-0.08396582 -0.003053539 -0.11975238 -0.013483753 -0.17819265 -0.076791145 0.017289296 0.078935705
-0.06280317 -0.0889928 0.09986189 -0.15855557 -0.12897585 -0.16499306 0.026384033 0.033893198
0.11079187 -0.10374799 -0.019153284 0.079338565 -0.0202893 -0.017269775 -0.049452078 -0.028493585
-0.08296826 -0.046213396 -0.07193042 -0.056343187 -0.10362865 -0.044724766 0.13519977 0.014000759
00000000: 2f08 223e a9ab 8e3e 4698 093e 933b 3a3e
00000010: 4af6 273d 6c7f 243d 4cea 9c3d 9eb9 6a3e
00000020: e769 363e 5326 ee3d 0ccc ea3d 34e1 873e
00000030: 64ca 8b3e 17db 6d3e 4193 823e 605e 493d
00000040: 502b d13c 6a5e 443e f499 3f3e 5bf6 153e
00000050: 6984 843e a1dd 4c3e 4fb3 c73c f868 da3d
00000060: 2369 103e 89c6 2b3e b120 923e 5e00 cb3d
00000070: dc2c a53d 8c83 d63d d8af 213d e858 8d3d
00000080: 1e9e 7e3e 8459 d13d d8ef 983d 802f 923e
00000090: 102c a33d bfe6 eb3d 3134 9d3e 9e86 0d3e
000000a0: 0906 763e 553b 293e 8ee8 ae3e faf9 783d
000000b0: d9be 473e e240 913e ce0f 953e b608 733e
000000c0: c951 5b3e bc29 673e 56af 2c3e 0c30 4b3e
000000d0: 030d 8c3e 1bd8 1a3e 56c5 6a3e f1a6 b93d
000000e0: 21bf 423d 3861 3e3e 1a79 b53d 20bc e43b
000000f0: 7ee0 ed3c f850 e73d 0e2e 8a3d 88a3 b13d
00000100: b460 423e f993 5a3e 0fdb d13c 471e 63bc
00000110: da77 bf3d f369 963a 45fb 243e 153f 243e
00000120: a7d2 94bc 51e6 993c a556 4b3e 74cd 5d3e
00000130: 945e bc3d a16a d73d a0a1 78bd 4bcf 63bd
00000140: 73aa 3d3d 5122 323d 0679 c1bd b346 06bb
00000150: 30ea 4137 4664 18be dbfa 9dbd c239 24be
00000160: dee4 11be 53d3 d13d c223 acbd 6401 953d
00000170: 4cfc 2dbd 50ea 873d 6a98 1f3e a1d2 03be
00000180: f5ba 173e 885a c23d 67b6 543e 618c d53d
00000190: ae42 933d 6aa7 333e deea a53e fae1 583d
000001a0: bd97 293e ac49 b13d 9ca5 d63d ef3b 393d
000001b0: cb49 613d 3267 de3d 0b12 fb3c 2eb9 333e
000001c0: ac2b 8c3d 6ea9 153e 9e4b 2e3e 45c5 0e3e
000001d0: 0061 d83c f123 133e f901 453e 06ee b1bb
000001e0: abde ae3d 1ba3 c33d 1f66 093e 493f 4c3e
000001f0: 3929 163e 6f5f 463e 6e7d 4c3e cdb0 0e3e
00000200: 91b0 f83d d6de 233e f624 fc3d bddc 073e
00000210: 8b47 803e 5643 273e 4dc5 153e e746 7a3e
00000220: 1f8a 513e 0f36 a73e b77a 343e 826a 743e
00000230: 041a a83d cf22 693d 2877 503d c87f 423e
00000240: a715 b03d ea6a 613e 3508 183e 011d f73d
00000250: 4c16 a13d add2 303d 6ac1 5d3e d795 373e
00000260: ed9d 29bd a076 0b3e 498b e2bc a038 973d
00000270: 900c 313d 07a7 743d b5c7 253e 938c 1cbd
00000280: 1d21 a1bc ff1a a6bd d8eb e53c 8580 0a3d
00000290: 16d3 e8bd 3490 0abe e45e 013e 3feb 283c
000002a0: 11a3 10be 580a d33d 8039 80bd 63b2 eabd
000002b0: 825b df3d fe14 c8bc 4711 7dbc 5d65 babb
000002c0: 9b22 c73c b0c7 043c 276d 063e c445 373d
000002d0: d591 573d b6bb 533d f162 843e b154 ad3c
000002e0: d80e db3c ea3c 993e 3ace 5e3e 4382 9a3d
000002f0: 9973 c23d 525f 1d3e 37e8 843e 54ba 7a3e
00000300: 6475 01be a6dc 8fbd d7c8 873d 93af f2bd
00000310: f436 c6bd 2e1e 17bd b90c e13d 7904 c2bd
00000320: 2cc3 ba3d e619 03bd 1682 5dbc 12c6 6fbd
00000330: 3543 1b3e feb3 5cbd 6d20 d93d 2f4d bcbd
00000340: 6959 3a3e 0ca1 143e 389c 013e 30d8 80b9
00000350: a6f8 f13d f2a5 043e 9da3 85bd 840e 373e
00000360: bda7 c73c b5e0 a23c b7c5 363e e27e 9b3c
00000370: 6060 353e 61b0 b4bc 30c9 a93d 4024 183e
00000380: 46f6 abbd e21d 48bb bc40 f5bd f6ea 5cbc
00000390: 2278 36be ad44 9dbd 48a2 8d3c 0ba9 a13d
000003a0: f39e 80bd db41 b6bd 6484 cc3d 645c 22be
000003b0: 3f12 04be f1f3 28be 5423 d83c 98d3 0a3d
000003c0: d9e6 e23d d479 d4bd 59e7 9cbc 427c a23d
000003d0: bf35 a6bc 5879 8dbc 438e 4abd 616b e9bc
000003e0: 43eb a9bd 424a 3dbd 4250 93bd 1dc8 66bd
000003f0: 423b d4bd 5131 37bd cf71 0a3e 7163 653c

layer1.bias f4 [256]
0.21335462 0.21102612 0.24913369 0.20041195 0.12507264 -0.0034178516 0.22882469 0.1178478
0.25260726 0.13630217 -0.0016834396 0.20848268 0.044713292 0.09701409 -0.030227652 0.055613082
0.17164782 0.25782225 -0.046803974 0.15871213 0.077464834 -0.003219551 -0.060435817 -0.024047954
0.21481948 -0.0065173944 0.23087561 0.18396115 -0.016324507 0.21925521 0.19116285 -0.0846217
0.18038942 0.08286698 0.11311505 -0.019904101 -0.07045256 0.20756538 0.1201611 0.22568688
0.2317595 0.15943113 0.10306538 0.039163586 -0.046397667 0.17111006 -0.0067400285 0.122400254
0.2126657 0.2236402 -0.053739753 0.25493783 0.24797039 0.15999623 0.105829515 -0.0835366
0.24241224 0.09786707 0.15255354 0.20336731 0.2055909 0.20955074 0.2368683 0.18570752
0.22413892 0.256542 -0.014141486 0.10165468 0.24776752 -0.0272065 0.23744243 0.24988092
0.18419339 0.1406684 0.24646498 0.2350907 -0.05942458 0.18670999 0.25006458 0.24282779
0.169745 -0.006191102 0.24800363 0.25415662 -0.009075941 0.24878326 0.111035585 0.20825449
0.17251259 -0.034951027 0.023496432 0.119289264 0.035000645 0.17470185 0.16511388 0.115202636
0.12722729 0.19900443 0.25104874 0.24514697 -0.012877977 0.22940211 0.06788399 0.22146891
-0.008587241 0.08165056 0.22322865 0.2503187 -0.07271203 0.22915626 0.24072887 0.06465213
0.24121587 0.22546777 0.2576795 -0.002546324 0.16791748 0.24257097 0.20441651 0.13988477
-0.0013717049 0.2359021 -0.044069964 -0.0047822623 0.16175157 0.14722504 -0.07817183 0.08202357
0.24527538 -0.0740224 0.20079319 0.22078493 0.17016812 0.25626215 0.15136716 0.25432757
0.21147406 -0.028353084 0.18660873 0.014658979 -0.08443885 0.24837568 0.24643835 0.20881318
0.071672685 0.22129346 -0.017034965 -0.04367157 0.15151465 0.20481837 0.255969 0.24332605
-0.014754548 0.22899534 0.24794355 -0.08850758 -0.060720544 -0.043489948 0.021170003 0.014216533
0.2397999 0.20694333 0.23961753 0.21674445 -0.050012153 0.1828253 0.04799895 0.20998055
0.10299661 0.08643367 -0.014209722 -0.06663498 0.19212653 0.22490923 0.23100944 0.23880824
-0.09030053 0.1923345 0.028611783 -0.0058245817 0.2537359 0.25311685 0.14118412 0.018133357
0.102128595 0.11735315 -0.10199556 0.058044493 0.1551154 0.043920737 0.20987743 0.14796813
0.1486666 0.18879758 0.24692754 0.13601567 0.21469606 0.10682243 0.13675131 0.21430717
-0.048407137 0.18539438 0.24779683 0.24875608 0.063694425 0.21128482 -0.0056624017 0.23238172
0.2008924 -0.0061005866 -0.03574965 0.14754365 0.25702015 0.0033244523 -0.008233066 0.25782868
0.16493659 0.11540499 0.16426729 0.251974 0.024149796 0.2582059 -0.11608585 -0.022150438
0.17717195 0.11268183 -0.03516844 0.24339691 0.0448667 0.25624776 0.19626151 0.18137683
0.20389728 0.16602625 0.25787827 0.24525318 0.13643865 0.15759891 0.23652215 -0.015281248
0.15904878 0.19405659 0.17909385 0.22305508 -0.052950833 0.20969428 0.24911064 0.14252761
0.143224 0.20493984 0.20669478 0.22305319 -0.048747875 0.22917496 0.2596425 -0.003012597
00000000: a279 5a3e 3b17 583e e71c 7f3e ca38 4d3e
00000010: 0b13 003e 09fe 5fbb 0551 6a3e 305a f13d
00000020: bd55 813e cc92 0b3e dca6 dcba 7c7c 553e
00000030: 4925 373d 53af c63d fb9f f7bc 8bca 633d
00000040: 72c4 2f3e 4701 843e 86b5 3fbd 6f85 223e
00000050: e2a5 9e3d 1aff 52bb 8c8b 77bd 3700 c5bc
00000060: a3f9 5b3e de8f d5bb a86a 6c3e 5060 3c3e
00000070: f9ba 85bc 7084 603e 32c0 433e 244e adbd
00000080: 01b8 383e 2ab6 a93d dda8 e73d ed0d a3bc
00000090: 6f49 90bd 058c 543e 0617 f63d 761a 673e
000000a0: 5d52 6d3e ea41 233e f113 d33d ff69 203d
000000b0: 7b0b 3ebd 7a37 2f3e 75db dcbb fcac fa3d
000000c0: 0ac5 593e f001 653e 371e 5cbd 3687 823e
000000d0: f3eb 7d3e 0dd6 233e 25bd d83d 3d15 abbd
000000e0: ea3a 783e 886e c83d ff36 1c3e 853f 503e
000000f0: 6c86 523e 7894 563e 9b8d 723e 1d2a 3e3e
00000100: ac84 653e 7959 833e b1b1 67bc 5430 d03d
00000110: c5b6 7d3e 2ae0 debc 1c24 733e c9e0 7f3e
00000120: 319d 3c3e 610b 103e 5161 7c3e 9ebb 703e
00000130: 3067 73bd e730 3f3e 7708 803e d9a7 783e
00000140: a2d1 2d3e bade cabb aaf4 7d3e d120 823e
00000150: 41b3 14bc 0ac1 7e3e a066 e33d aa40 553e
00000160: 24a7 303e cf28 0fbd 977b c03c ee4d f43d
00000170: d65c 0f3d 0be5 323e 9d13 293e 5cef eb3d
00000180: df47 023e d1c7 4b3e 7689 803e cf07 7b3e
00000190: 27fe 52bc 63e8 6a3e c306 8b3d bfc8 623e
000001a0: 80b1 0cbc 6938 a73d 0d96 643e c629 803e
000001b0: 0bea 94bd f0a7 6a3e a181 763e 5668 843d
000001c0: 4b01 773e 06e1 663e 91ee 833e 3ae0 26bb
000001d0: 8ff2 2b3e 8664 783e 9052 513e f43d 0f3e
000001e0: c7ca b3ba 5290 713e b582 34bd 86b4 9cbb
000001f0: 34a2 253e 29c2 163e 8d18 a0bd f9fb a73d
00000200: 7829 7b3e 0e99 97bd bb9c 4d3e 7215 623e
00000210: 8d40 2e3e cb34 833e feff 1a3e 3937 823e
00000220: a88c 583e ba44 e8bc 5c16 3f3e 372c 703c
00000230: 47ee acbd 3256 7e3e 565a 7c3e 1fd3 553e
00000240: 21c9 923d c19a 623e e98c 8bbc f6e0 32bd
00000250: a826 1b3e e8bb 513e 5e0e 833e 772a 793e
00000260: 0fbd 71bc c17d 6a3e eae4 7d3e 7643 b5bd
00000270: 1bb6 78bd 8422 32bd b76c ad3c 76ec 683c
00000280: 1b8e 753e f4e8 533e 4c5e 753e 42f2 5d3e
00000290: 8bd9 4cbd 8e36 3b3e 8c9a 443d 2405 573e
000002a0: e3ef d23d 2304 b13d e5cf 68bc ec77 88bd
000002b0: d1bc 443e 9b4e 663e bd8d 6c3e 268a 743e
000002c0: 7cef b8bd 56f3 443e 4263 ea3c 22dc bebb
000002d0: ace9 813e 8898 813e 9292 103e 688c 943c
000002e0: cc28 d13d d956 f03d 0ce3 d0bd 10c0 6d3d
000002f0: 92d6 1e3e 3be6 333d 1cea 563e f584 173e
00000300: 0f3c 183e 2754 413e 93da 7c3e b147 0b3e
00000310: 49d9 5b3e b8c5 da3d 8908 0c3e 5773 5b3e
00000320: 9046 46bd 06d8 3d3e 74be 7d3e eab9 7e3e
00000330: 3972 823d 0c5b 583e ab8b b9bb 79f5 6d3e
00000340: bdb6 4d3e 6ee7 c7bb 3a6e 12bd af15 173e
00000350: 2598 833e 0edf 593b fbe3 06bc 1f02 843e
00000360: 23e5 283e 7459 ec3d af35 283e bc02 813e
00000370: cbd5 c53c 9033 843e 6bbe edbd d674 b5bc
00000380: 906c 353e bbc5 e63d c80c 10bd 0a3d 793e
00000390: 25c6 373d e832 833e c7f8 483e d9ba 393e
000003a0: 73ca 503e c902 2a3e 9f08 843e a623 7b3e
000003b0: 93b6 0b3e 9c61 213e dd32 723e 335e 7abc
000003c0: afdd 223e c5b6 463e 6164 373e 8d68 643e
000003d0: f9e2 58bd 19ba 563e dc16 7f3e c2f2 113e
000003e0: 50a9 123e c0db 513e cca7 533e 0e68 643e
000003f0: daab 47bd d7ac 6a3e ddef 843e fe6e 45bb

layer3.weight f4 [4, 256]
-0.10473238 -0.103101395 -0.14713658 -0.07838088 -0.25070038 -0.03161093 -0.19679518 -0.11550203
-0.25053573 -0.14427365 -0.032476597 -0.29238132 -0.009965058 -0.055135913 0.07132581 -0.1369814
-0.0102268215 -0.28309765 0.060554843 -0.026558565 -0.0477609 -0.116408415 -0.044250764 -0.01762305
-0.23464987 -0.0276851 -0.22547461 -0.22342849 0.073402114 -0.16159934 -0.05833964 0.039402083
-0.02968324 -0.048061304 -0.11378694 -0.12453906 -0.03298253 -0.17885743 -0.04037676 -0.19486924
-0.3063355 -0.23229639 -0.16468552 0.06220263 -0.052267008 -0.27083606 -0.05246057 0.0030521443
-0.20728791 -0.055840213 0.08000912 -0.1738671 -0.18782833 -0.14430976 -0.21811719 0.012278695
-0.2802459 -0.081977315 -0.2710984 -0.1550769 -0.18029389 -0.25978956 -0.086754955 -0.10666306
-0.19050442 -0.21618588 -0.084889516 -0.016814128 -0.1953534 0.040847477 -0.26682952 -0.17959356
-0.020066738 -0.16186805 -0.14617574 -0.17958121 -0.02320193 -0.17475428 -0.29523823 -0.1668285
-0.09146473 -0.14282821 -0.3159196 -0.15655197 0.07448389 -0.30843183 -0.154173 -0.18788628
-0.18827325 0.06834861 -0.09126243 -0.15036495 0.010038768 -0.21719557 -0.20155735 -0.22492829
0.024802744 -0.0127161 -0.19490185 -0.20763369 -0.049742024 -0.11738815 -0.15721178 -0.2440652
-0.07340985 -0.17533717 -0.16331483 -0.26236767 -0.026483238 -0.25630078 -0.09843034 -0.100719884
-0.20200922 -0.21938294 -0.25263512 -0.060494624 -0.2060733 -0.12713546 -0.1362034 -0.027539654
-0.06937233 -0.18950585 -0.04053325 0.0215066 -0.23715343 -0.12115899 -0.024052327 0.030451898
-0.31368136 0.016096026 -0.14588544 -0.29167277 -0.011058985 -0.20546012 -0.27311757 -0.2450427
-0.15008205 -0.046997927 -0.17338517 0.08752475 -0.04587509 -0.266247 -0.13546398 -0.23626392
-0.22130552 -0.19142075 -0.022750031 0.07434437 -0.09049096 -0.20213814 -0.18995252 -0.24263965
-0.11742797 -0.20549516 -0.14842522 0.08360905 0.076759405 0.030541148 0.043398675 -0.009191263
-0.15688384 -0.16557847 -0.16107541 -0.23657584 0.013815651 -0.2722302 -0.15147483 -0.27400008
-0.097209826 -0.08136457 0.047973007 0.050834402 -0.123333745 -0.0386058 -0.16635092 -0.25479314
0.0741886 -0.09261684 -0.021429112 0.060422413 -0.21616727 -0.14640756 -0.21723157 -0.17275111
-0.022079112 -0.22853163 0.0354402 -0.18686253 -0.26482487 -0.10312761 -0.23403361 -0.036147475
-0.079758696 -0.29085848 -0.29897898 -0.1059999 -0.2891858 -0.12688282 -0.023660129 -0.14597434
-0.0172554 -0.17209299 -0.27666327 -0.31291798 -0.157714 -0.07336616 0.0807259 -0.15246896
-0.25538883 0.0850826 0.040592454 -0.07272871 -0.23694907 0.13780235 -0.043956067 -0.18396212
-0.08388895 -0.041911513 -0.23345608 -0.2805671 0.055395562 -0.23831639 0.061435796 -0.014381121
-0.07886496 -0.21466811 0.031981226 -0.31286603 -0.0018898555 -0.24649183 -0.12831007 -0.049627036
-0.25782785 -0.15562756 -0.2931607 -0.26099667 -0.09011033 -0.08874449 -0.25877076 0.027071847
-0.044499315 -0.17561997 -0.22764212 -0.28377405 -0.0054726144 -0.17022738 -0.16084613 -0.013987761
-0.15082367 -0.24082978 -0.27535424 -0.20277192 0.10029559 -0.25158376 -0.29464692 0.044013016
00000000: ee7d d6bd d326 d3bd f9aa 16be 2886 a0bd
00000010: cd5b 80be 767a 01bd ad84 49be 548c ecbd
00000020: 3846 80be 79bc 13be 2e06 05bd 01b3 95be
00000030: 7c44 23bc 32d6 61bd 4413 923d da44 0cbe
00000040: 668e 27bc 2df2 90be 5b08 783d 5991 d9bc
00000050: efa0 43bd 8967 eebd 4a40 35bd 375e 90bc
00000060: 0e48 70be ddcb e2bc d1e2 66be 70ca 64be
00000070: d953 963d 4c7a 25be 8cf5 6ebd 1464 213d
00000080: 442a f3bc eedb 44bd 2109 e9bd 560e ffbd
00000090: b018 07bd 6726 37be 1a62 25bd cd8b 47be
000000a0: 02d8 9cbe 1bdf 6dbe 52a3 28be 2fc8 7e3d
000000b0: ee15 56bd 06ab 8abe e5e0 56bd 7c06 483b
000000c0: 4843 54be b5b8 64bd d2db a33d 380a 32be
000000d0: 1256 40be f0c5 13be 1d5a 5fbe 942c 493c
000000e0: 647c 8fbe b9e3 a7bd 69cd 8abe 7bcc 1ebe
000000f0: f69e 38be 2303 85be 95ac b1bd 2a72 dabd
00000100: 9713 43be d55f 5dbe 8eda adbd c8bd 89bc
00000110: b90a 48be af4f 273d e19d 88be 60e7 37be
00000120: 0063 a4bc bdc0 25be 18af 15be 23e4 37be
00000130: f911 bebc c9f2 32be 7729 97be 17d5 2abe
00000140: dc51 bbbd 8f41 12be 37c0 a1be 294f 20be
00000150: 028b 983d c7ea 9dbe 87df 1dbe 4365 40be
00000160: b4ca 40be 5bfa 8b3d cce7 babd 45f9 19be
00000170: a579 243c 8468 5ebe 0d65 4ebe 9a53 66be
00000180: 202f cb3c 3057 50bc 5a94 47be ed9d 54be
00000190: 4bbe 4bbd 3369 f0bd 20fc 20be 3aec 79be
000001a0: e757 96bd 968b 33be 013c 27be 0e55 86be
000001b0: 60f3 d8bc db39 83be d995 c9bd 3a46 cebd
000001c0: 81db 4ebe eca5 60be 6459 81be 36c9 77bd
000001d0: e104 53be cc2f 02be e778 0bbe d79a e1bc
000001e0: 1513 8ebd d20d 42be 3106 26bd 9c2e b03c
000001f0: 59d8 72be 3422 f8bd 6309 c5bc 4276 f93c
00000200: d89a a0be d0db 833c fe62 15be 2256 95be
00000210: bf30 35bc 2364 52be 11d6 8bbe 79ec 7abe
00000220: 1caf 19be e680 40bd e28b 31be 2d40 b33d
00000230: 85e7 3bbd 8751 88be 12b7 0abe 2bef 71be
00000240: ea9d 62be cd03 44be 465e babc dc41 983d
00000250: 5353 b9bd 4dfd 4ebe ea82 42be 8776 78be
00000260: 137e f0bd 536d 52be c8fc 17be 393b ab3d
00000270: 0934 9d3d 6e31 fa3c cfc2 313d f396 16bc
00000280: 28a6 20be 678d 29be f4f0 24be f040 72be
00000290: 0a5b 623c c261 8bbe 381c 1bbe bd49 8cbe
000002a0: f215 c7bd 78a2 a6bd 587f 443d bc37 503d
000002b0: 6796 fcbd 1e21 1ebd e557 2abe 3f74 82be
000002c0: 31f0 973d e6ad bdbd 1b8c afbc 7e7d 773d
000002d0: f45a 5dbe ddeb 15be f471 5ebe abe5 30be
000002e0: 41df b4bc 3204 6abe be29 113d e458 3fbe
000002f0: 2097 87be 9234 d3bd 82a6 6fbe 600f 14bd
00000300: 8758 a3bd 67eb 94be c613 99be 7a16 d9bd
00000310: 2910 94be 92ed 01be e3d2 c1bc 4c7a 15be
00000320: 325b 8dbc 2539 30be cfa6 8dbe c936 a0be
00000330: c77f 21be ff40 96bd 9f53 a53d d320 1cbe
00000340: 53c2 82be c93f ae3d 4644 263d caf2 94bd
00000350: c7a2 72be 0f1c 0d3e 470b 34bd 9160 3cbe
00000360: f8cd abbd 68ab 2bbd 1c0f 6fbe 7ea6 8fbe
00000370: 75e6 623d 3609 74be 1aa4 7b3d cb9e 6bbc
00000380: f483 a1bd f5d1 5bbe bffe 023d fa2f a0be
00000390: 07b5 f7ba 5b68 7cbe b763 03be b845 4bbd
000003a0: 0302 84be d55c 1fbe 2919 96be 5ba1 85be
000003b0: c48b b8bd acbf b5bd 9a7d 84be c7c5 dd3c
000003c0: ea44 36bd b9d5 33be 041b 69be d54a 91be
000003d0: 9e53 b3bb 1650 2ebe d9b4 24be ec2c 65bc
000003e0: 8571 1abe 159c 76be 3bfb 8cbe 71a3 4fbe
000003f0: c667 cd3d 96cf 80be f6db 96be fe46 343d

layer3.bias f4 [4]
-0.16742502 -0.16848785 -0.17167337 -0.16848905
00000000: 7771 2bbe 1488 2cbe 25cb 2fbe 6588 2cbe
